checkpoint.pth (torch, 229647 bytes, 12 tensors)

conv1.weight f4 [6, 1, 3, 3]
000000 2b d4 ca 3d e5 bd a1 be 04 85 08 bf 13 18 62 3e
       0.09903749 -0.3159019 -0.53327966 0.22079496
000010 2c 5b 1d be 98 fb ca be f0 73 41 3e 39 f2 7c be
       -0.1536681 -0.39645076 0.18891883 -0.24701776
000020 c4 b2 fa be 71 8d 8d be ea 6b 99 be bc 3f 8b be
       -0.48964512 -0.27646974 -0.29965144 -0.27197063
000030 be c1 a2 be ab 4e 0d 3e b6 a0 31 3e ac 3e 07 be
       -0.3178844 0.1379954 0.17346463 -0.13207501
000040 06 4e e8 3e 6d 57 1c 3f ed 6e c3 bd 57 53 b8 bd
       0.45372027 0.610709 -0.09542642 -0.09000271
000050 5c 1e 1d 3f 6a b3 19 3e f3 38 73 3e 9d 48 c8 3e
       0.6137445 0.15009847 0.23752193 0.391179
000060 11 ad 69 be fb 85 a1 3e 75 3b 8f 3e e7 19 41 3d
       -0.22819926 0.3154753 0.2797505 0.047143843
000070 0e bb 81 3e f1 b4 e0 3e 6e 13 b5 3e 97 78 f8 3d
       0.25338024 0.43888047 0.35366386 0.12132376
000080 c8 0e 59 3e f7 77 07 be e7 c9 1b 3d 28 b0 1c be
       0.21197045 -0.13229357 0.038034346 -0.15301573
000090 de f1 aa be 5b 7d d7 3d 5d 72 f1 be fd 61 73 be
       -0.33387655 0.105219565 -0.47157565 -0.23767848
0000a0 61 73 93 be b6 bf 0d bf 97 a0 55 3d c8 96 98 3d
       -0.28798965 -0.5537065 0.052155104 0.07450634
0000b0 80 d7 02 3e 8c 14 21 bf 97 8a 2f 3d e3 ab 4b 3e
       0.12777519 -0.6292198 0.04285678 0.19889788
0000c0 9e 69 91 be 2e c9 c9 3e 6c 85 cb 3e 77 a0 cf 3d
       -0.28400892 0.394113 0.3975023 0.10138028
0000d0 67 a8 3f 3e 1d da f4 be
       0.18716584 -0.47822657

conv1.bias f4 [6]
000000 fb 2e 5c be 6c e0 8a 3e 74 28 b1 bb d7 b8 66 bf
       -0.21502297 0.27124345 -0.0054064337 -0.90125793
000010 6f 35 99 bd 81 3f 0e 3f
       -0.07480895 0.5556565

conv2.weight f4 [6, 6, 3, 3]
000000 51 f2 42 3d 75 53 87 3e 9f 56 90 be 51 52 e0 3d
       0.047594372 0.2643086 -0.28191087 0.109532006
000010 e6 d3 85 3d 49 1f ed bd d0 80 45 3e 32 b3 d9 3d
       0.06534557 -0.11578233 0.1928742 0.10629882
000020 c8 6b 73 be 7e ef c4 be 4c ee 23 3e 38 b5 a9 3e
       -0.23771584 -0.38463968 0.16008872 0.3314607
000030 6c d6 bd be 1e d0 bd 3d f2 9a 03 3e aa 99 90 be
       -0.37077653 0.09268211 0.12852076 -0.28242236
000040 45 65 80 bd c3 24 53 3d 93 ab ad be 70 c7 b6 bd
       -0.06269316 0.05154873 -0.33919963 -0.089247584
000050 46 d4 0a 3f 8c 2b c1 be bf a6 d4 bd 7b f6 04 3f
       0.54230154 -0.37728536 -0.10383367 0.519386
000060 50 4c 92 be f4 40 51 be 04 4a da 3e 80 2a 7b be
       -0.28573847 -0.20434934 0.42634594 -0.24527931
000070 67 73 b8 bd 71 d9 e9 3d 36 78 7f be bf 82 83 bd
       -0.09006386 0.11418427 -0.249482 -0.06421422
000080 27 a1 1e 3e 7a 6c 11 be 0b b2 94 bd f4 7f 97 3e
       0.15491162 -0.14201537 -0.072605215 0.29589808
000090 92 82 70 bb 26 a2 c3 3d 01 fb 11 be 66 fb 13 3e
       -0.003669892 0.09552412 -0.14255907 0.1445137
0000a0 51 7c 0a bc 4a df 9d be 44 8a bc 3d 85 82 5c bb
       -0.008452491 -0.3083442 0.092060596 -0.0033647132
0000b0 84 02 8a be 70 b4 de be c6 3d b0 3e f4 ae 48 3e
       -0.26955044 -0.43497038 0.3442213 0.1959799
0000c0 c8 a1 ca be a2 22 56 3e 41 13 4d 3e 27 26 cd be
       -0.39576554 0.20911649 0.20026876 -0.4006817
0000d0 b2 60 47 3e cc b5 16 be 69 34 27 3e 87 a1 05 3e
       0.1947048 -0.14717788 0.16328587 0.13049899
0000e0 f6 d1 da 3d e0 db 41 3d b8 24 5c 3e e9 52 0c 3e
       0.10684578 0.04732883 0.21498382 0.13703503
0000f0 32 0c 6c 3e d8 10 14 3e f5 c1 9d 3d ed 77 c9 be
       0.23051527 0.1445955 0.0770301 -0.3934931
000100 7c 14 63 be 1c f6 a1 3c fd 52 ba be 70 82 e0 bd
       -0.22175783 0.019770674 -0.3639144 -0.10962379
000110 bf dc ab 3d f7 47 5e be c4 83 17 be 6c 35 6e bd
       0.08391713 -0.2170714 -0.14796358 -0.058156416
000120 cc 70 89 be 31 47 9f 3e b6 34 f3 3e ed a5 ab bd
       -0.2684387 0.31109002 0.47501153 -0.08381257
000130 c5 36 c0 bd 96 1d 08 3e a6 87 c5 be 81 01 39 bc
       -0.093854465 0.13292536 -0.38580054 -0.011291862
000140 55 05 f4 bb 11 74 34 be 4b c6 35 3e 4e 49 af 3e
       -0.0074469247 -0.17622401 0.17751424 0.34235615
000150 cc 7e 25 be 8d 4f 00 3c 53 c7 d7 3d 69 54 50 be
       -0.1616165 0.007831466 0.10536065 -0.203447
000160 a9 de 85 be a9 1a dd 3d 39 e3 b0 bc b6 1f 6a 3e
       -0.2614644 0.10796101 -0.021592723 0.2286366
000170 dc 37 84 3e 56 0f de 3d 36 4d 2b 3e 97 72 43 3e
       0.25823867 0.10842769 0.16728672 0.19086681
000180 f5 88 ec bc 42 92 8f 3e bf 21 c2 3d cd bf 77 be
       -0.0288739 0.28041273 0.09479093 -0.2419426
000190 a3 fe 94 3d e1 9f 2b 3e da 15 36 be 5f 13 49 bd
       0.072751306 0.16760208 -0.17781773 -0.04909074
0001a0 0f ae 14 3e c4 60 8b be 57 b9 06 be 51 13 31 3e
       0.14519523 -0.27222264 -0.13156639 0.17292525
0001b0 ae 3b 59 bc d2 38 3a 3d 27 7f 9e bc 8b bc 88 be
       -0.013258858 0.045464344 -0.01934774 -0.26706347
0001c0 4a dc 85 be f7 7d a6 be 33 2d c7 bd 66 ae 41 bc
       -0.2614463 -0.3251798 -0.09725418 -0.011821365
0001d0 55 41 8c be d1 6a 2e 3d 33 b0 89 3c d4 ae 2b bd
       -0.27393594 0.042582337 0.016807651 -0.041914776
0001e0 a4 82 2c 3d 19 ce 29 bd 67 bd cf bd 7a 0d 8a 3d
       0.042116776 -0.041456316 -0.101435475 0.06740852
0001f0 cf b1 8c bb c0 22 e3 bc 45 a4 cb 3c c3 fc f9 bc
       -0.0042936574 -0.027726531 0.024858603 -0.030516034
000200 46 db 91 be cd 51 96 3d ab 81 cf 3d b1 1c 74 3d
       -0.28487605 0.07339821 0.10132154 0.059597675
000210 92 d9 67 3e d8 b6 06 3f 79 05 76 3e 0f a5 39 be
       0.2264159 0.5262275 0.24025525 -0.18129371
000220 01 1c 2c be c3 2b 29 bd 6e cd 24 3e 2f b6 0f bd
       -0.16807558 -0.0413015 0.1609399 -0.035085853
000230 42 10 b9 3d 8c d6 b4 bc d3 47 31 3e 06 69 6d 3e
       0.09036304 -0.02207496 0.17312555 0.23184595
000240 fd 67 09 be 64 f9 89 bd c7 93 1d 3d bd 7b a7 3c
       -0.13418575 -0.067370206 0.03847101 0.020444745
000250 8b ca 5c 3d 41 a1 15 be 73 50 5a bd b6 96 54 be
       0.053904098 -0.14612295 -0.05329938 -0.20760617
000260 49 2e b1 bd 5d e9 b8 bd 10 17 be 3d 41 4a be bd
       -0.08651406 -0.090288855 0.092817426 -0.092915066
000270 07 6f a0 3c f4 70 03 be 69 fe 3e 3d 0a e6 8e 3e
       0.019584192 -0.12836057 0.046629343 0.2790988
000280 a0 81 38 be a8 05 2b 3d 91 e9 cd bd f6 53 ea 3c
       -0.18018198 0.04175344 -0.10054315 0.028604489
000290 14 23 ad bd 6d b5 d5 bd 96 44 45 be 5b 21 a2 be
       -0.08453956 -0.10434995 -0.19264445 -0.31666073
0002a0 ca 9e 00 3e 54 61 9a bd 86 20 89 be bc 21 0f 3d
       0.12560573 -0.07538095 -0.26782626 0.03494428
0002b0 f3 2b 44 3e 99 62 cb 3d c7 92 b4 3c c3 14 2e 3e
       0.1915739 0.099309154 0.022042645 0.17000107
0002c0 69 1f c6 3d e4 5d e1 3d f8 37 f5 bc d9 1d 33 3a
       0.0967396 0.11004236 -0.029933915 0.0006832756
0002d0 cc 8f 88 be d6 55 39 be 1e 73 af 3d 4c 97 c0 3d
       -0.26672208 -0.1809915 0.08566879 0.094038576
0002e0 1a 1a 3a be ec 32 22 3e 95 e0 96 bd 49 73 3a 3c
       -0.1817402 0.15839738 -0.073670544 0.011380025
0002f0 3f 2e aa 3e 7b f1 a8 be 98 ba 9b bd 84 06 24 be
       0.33238408 -0.32996735 -0.07603949 -0.1601811
000300 32 f2 d9 bd e4 d4 17 3d 7a 57 34 3e 05 3f 64 bd
       -0.10641898 0.037068263 0.17611495 -0.055724163
000310 54 4b a6 3d 04 22 4c 3e 70 a4 fd 3c 9c a3 98 bc
       0.081198364 0.19934851 0.030962199 -0.018632703
000320 83 b0 1c be 7a ee ec 3d fb c3 d4 bd 0f e9 4c be
       -0.15301709 0.11568923 -0.10388943 -0.2001078
000330 d2 69 29 3e 2a 2a da 3c 33 69 a8 bc f4 40 69 bc
       0.16544273 0.026631434 -0.020557975 -0.014236677
000340 0d 01 6e 3e 7f f6 0c be c2 21 f3 3d 43 89 76 3e
       0.23242588 -0.13765906 0.11871673 0.24075799
000350 a4 9a 24 bc b6 38 27 3e 30 c6 ce 3d 60 8e 2b 3d
       -0.010046635 0.16330227 0.10096395 0.041883826
000360 94 b2 14 be 82 b4 9c be 94 13 99 be 48 98 e9 bd
       -0.14521247 -0.30606467 -0.2989775 -0.114059985
000370 dd 79 24 bd 13 77 14 be 98 3f 00 3e 93 0c 3f 3d
       -0.04015528 -0.14498548 0.12524259 0.04664285
000380 e5 c4 ff bd 02 3d 82 3d c1 50 c6 3d f3 93 33 bb
       -0.124887265 0.063592926 0.09683371 -0.0027401417
000390 41 29 1e bc 03 eb 21 3e e0 51 bd bd f3 d6 02 be
       -0.00965339 0.15812306 -0.09244132 -0.12777309
0003a0 f0 d5 59 bd c9 6e 4f be d5 2e 82 3e 42 c5 69 3e
       -0.053182542 -0.20257105 0.25426355 0.22829154
0003b0 ee a0 10 3f c4 eb b5 3d 6d d0 ad 3e 4c d5 07 3f
       0.5649556 0.08882859 0.3394808 0.5305984
0003c0 f1 b9 5f be 5d 15 3f be bd 01 4e 3e 2c bf 8f 3d
       -0.21848275 -0.18660493 0.2011785 0.07018885
0003d0 7d e4 2b 3d be 21 61 3e 14 19 49 3e 45 33 a2 3d
       0.04196595 0.21985528 0.19638473 0.07919935
0003e0 66 9a 3b 3d e7 40 80 be a4 c6 89 3d 2c 58 a2 3e
       0.045801543 -0.25049517 0.06727341 0.31707895
0003f0 9a c6 fd 3c 38 44 10 3d 81 79 ac be db 88 b4 3d
       0.03097849 0.03522131 -0.3368645 0.088151656

conv2.bias f4 [6]
000000 04 24 d8 bd 08 cb e9 3d 25 67 f7 3d 35 34 3d 3e
       -0.105537444 0.11415678 0.1208022 0.18476947
000010 f4 cc fd 3d 47 fb a4 3d
       0.12392607 0.0805574

conv3.weight f4 [16, 6, 3, 3]
000000 62 8b 40 3d 4d cc 16 3e eb eb b2 bc fe f8 64 be
       0.047007926 0.14726372 -0.02184101 -0.22360608
000010 ff d5 b4 3d af fd 1f 3d ac c9 f4 be 15 ab 67 be
       0.08829879 0.03906029 -0.47810113 -0.22623856
000020 48 cd f6 3c 30 2a 85 3e 11 b1 55 3d e2 22 b8 be
       0.030127183 0.2600875 0.052170817 -0.35964113
000030 ef 35 b3 3d a2 9c 85 3e c2 ee 33 be 30 56 34 bd
       0.087505214 0.26096064 -0.17571548 -0.044027507
000040 15 c8 f5 3d 83 29 e6 3d cc 79 cc be b0 2e 4c 3e
       0.12001053 0.112383865 -0.39936674 0.19939685
000050 49 d0 19 3f ba a6 86 be 18 96 0f be bb 52 9d 3e
       0.6008344 -0.26299077 -0.140221 0.3072718
000060 41 cd 88 be c9 e0 d1 be 78 34 4f be e2 ae 16 be
       -0.26719096 -0.4099181 -0.20234859 -0.1471515
000070 53 2d 87 3e 3e c8 73 3e f6 1c 7a be 51 8e 36 bd
       0.26401767 0.23806855 -0.2442511 -0.044569317
000080 d3 df 79 3e 7f f2 90 be cb 73 b7 be 5b 03 41 3d
       0.24401788 -0.2831001 -0.3583053 0.04712234
000090 e2 32 91 be e0 df 0c 3f ed 54 82 3f f4 69 26 bf
       -0.28359133 0.55029106 1.0182167 -0.6500542
0000a0 be d9 d7 bd 8c 08 34 3f 8f d8 42 bf ba 03 2e bf
       -0.10539578 0.7032554 -0.7611169 -0.67974436
0000b0 2d bc 4f 3e 05 16 98 be dc 05 8d be 0c 57 da bd
       0.20286627 -0.297043 -0.27543533 -0.10661134
0000c0 be 7a ee bc cb ec 18 be 93 6d ce be 2b 7c c1 bd
       -0.029111262 -0.1493408 -0.40317973 -0.09447511
0000d0 7c a7 76 be 91 3c 82 be 46 e9 7c be 1e 11 90 be
       -0.24087328 -0.25436834 -0.24698362 -0.2813806
0000e0 e1 66 cc be 41 c3 28 3d 93 f1 70 be 9d c4 ad bd
       -0.3992224 0.041201834 -0.23529653 -0.08484767
0000f0 94 33 1b 3e 74 5a 6f 3d 25 26 97 3d 06 1b b6 be
       0.15156394 0.058435872 0.07380322 -0.35567492
000100 28 99 c7 be e2 ec ce bd bf 16 02 be 16 d0 02 be
       -0.38984036 -0.101037756 -0.1270399 -0.12774691
000110 4f b6 d4 bd 77 78 9a 3e b4 46 dc 3e 90 6e 62 3e
       -0.10386335 0.30170032 0.43022692 0.22112489
000120 ae 46 d3 3e eb 04 ef 3e ce e8 a4 3e da c9 8b 3e
       0.41264862 0.4668344 0.32208866 0.27302438
000130 67 30 59 bc 06 8e ac bd dd 41 43 bf 07 86 19 bf
       -0.013256169 -0.08425526 -0.76272374 -0.59970134
000140 f8 5e 05 bf 62 f6 af 3e 07 7a 85 3e 74 9f 14 bc
       -0.52098036 0.34367663 0.26069662 -0.00907122
000150 0e 83 87 bc 85 44 eb bd 1a a5 88 be ce 94 b0 be
       -0.016541984 -0.114876784 -0.26688462 -0.3448853
000160 aa 5d 3e be 4a e0 67 bc 11 f5 23 3f 42 07 94 3f
       -0.18590418 -0.014152596 0.64045817 1.1564715
000170 0e 1a 66 3f 0d 4e 72 3d 89 e5 4a bd e0 47 17 be
       0.89883506 0.059156466 -0.049535308 -0.14773512
000180 8a 20 7f bf 42 fd 5e bf 5a cb f1 be 03 ae 79 3d
       -0.99659026 -0.8710519 -0.47225457 0.060956966
000190 7f 70 19 bf e3 07 74 bf 79 97 f5 3d 8b a2 55 be
       -0.5993728 -0.95324534 0.11991782 -0.20862786
0001a0 39 5e 4c 3c 41 2e 39 3e 0b e6 29 3e de 16 51 3e
       0.012473636 0.1808405 0.1659166 0.2041888
0001b0 11 70 43 3d 67 f4 6d 3d 29 82 f8 3d f6 85 1b bd
       0.047714297 0.05809441 0.12134201 -0.037969552
0001c0 07 70 45 3e ae f8 e9 3c f2 fa 0f 3d 1f ca 32 3e
       0.19281016 0.028560963 0.03515143 0.17459916
0001d0 73 9e 0a 3d d0 33 c6 bd d4 98 59 3e 52 17 c2 bd
       0.033842515 -0.09677851 0.21249706 -0.09477104
0001e0 2f ce 7a bd 87 e7 33 3d b5 00 46 be cb 53 21 3e
       -0.06123179 0.043921974 -0.19336207 0.1575462
0001f0 87 07 6d 3e 3a 0a e3 bd d8 36 b1 3d d0 91 a9 bd
       0.23147403 -0.11085935 0.08653039 -0.08279765
000200 5f 0b 20 bd 66 21 05 3d a9 67 0b be 2b fb 8f 3d
       -0.039073344 0.032502554 -0.13613762 0.07030328
000210 ed c5 b1 bc 98 9e fd bd 04 89 bd bc 83 7e b6 bc
       -0.021700824 -0.12383765 -0.023136623 -0.022277122
000220 dd 59 50 be 3d f2 86 bd a2 09 4d 3d 4a e1 9e 3a
       -0.2034678 -0.06589172 0.050058015 0.0012121585
000230 60 b8 b3 3c 09 48 e6 bd 30 ca 94 3c ff c7 6e 3d
       0.021938503 -0.11244208 0.018162817 0.0582962
000240 d4 83 7b bd 36 8c 45 be 87 49 1c be 13 e0 c5 3d
       -0.061405018 -0.19291767 -0.15262423 0.096618794
000250 a9 b1 5d be d3 6e 5d 3c b7 05 0f be da 0c fc bd
       -0.21649803 0.013515192 -0.13967024 -0.12307139
000260 da 5f a5 3d 61 fc 08 bd 8b 73 ac 3d db cc 91 3e
       0.08074923 -0.033443812 0.084204756 0.28476605
000270 ce 0f aa be f5 ed 31 3e 74 c7 74 bc a0 e4 b0 be
       -0.33215183 0.1737593 -0.014940131 -0.34549427
000280 14 bb f7 3d 71 b7 6e 3d c7 72 b2 be 04 d5 ee 3d
       0.12096229 0.058280412 -0.34853193 0.11661723
000290 6f 23 63 3f b1 8e df bd 60 5f 15 3e 03 89 03 3f
       0.8872594 -0.10915888 0.14587164 0.5138094
0002a0 1b 89 62 be df c9 0c be 26 a2 a9 3e b9 51 8c be
       -0.22122614 -0.13748883 0.33131522 -0.274061
0002b0 d3 eb ea bd c0 d3 03 3f 6f 0b ef bd 02 69 2c be
       -0.11470761 0.5149498 -0.11672103 -0.16836932
0002c0 b9 79 c5 3e e5 a6 0e bd 03 37 95 be 91 0f 76 bc
       0.3856943 -0.03482713 -0.29143533 -0.01501836
0002d0 af 97 3d 3d d4 a1 cc 3e 0b e3 e7 be d5 ea 86 be
       0.046287235 0.39967215 -0.45290408 -0.26351038
0002e0 d5 b0 10 3f 55 5f 80 be 21 28 48 be a9 22 90 3e
       0.56519824 -0.25072733 -0.19546558 0.28151444
0002f0 e1 2a 86 bd 6f f2 38 3e e0 cf 82 be e6 ee 65 be
       -0.06551147 0.18061231 -0.2554922 -0.22454414
000300 ed a2 b2 3e ee b9 c0 bc db db e3 be 48 8d 72 3e
       0.34889928 -0.023526158 -0.44503674 0.23686707
000310 34 1d 21 3e 88 72 b5 be c9 7a 35 3e 4f ec d0 be
       0.15733796 -0.35438943 0.1772262 -0.4080529
000320 02 7f 5b bf a1 db 14 3f e6 b8 41 3f d4 9f 72 bf
       -0.85740674 0.5814763 0.7567276 -0.9477513
000330 16 58 b6 3c ea be 5f 3f 4a ea b7 be c2 4b 92 bd
       0.0222588 0.87400687 -0.35920936 -0.07143356
000340 94 af e5 be 85 af 65 be 1b 34 04 3c 75 1f af be
       -0.44860518 -0.22430237 0.008069064 -0.34203687
000350 05 ed db be f3 e0 e9 3d 1f a4 3b be d4 ee 97 be
       -0.4295427 0.11419859 -0.18324326 -0.296744
000360 e8 ee f6 bd d4 6f a4 bd b7 ee 31 be 55 36 85 bd
       -0.120572865 -0.08029142 -0.17376219 -0.06504504
000370 85 2b 37 3e 93 8d 21 3c 3e d7 14 3d 63 98 02 3e
       0.17887695 0.009860414 0.036338083 0.12753443
000380 d0 e5 5a be 83 84 16 be 9f ef 99 be 47 ad 75 3e
       -0.21376729 -0.14698987 -0.3006563 0.23991881
000390 1e df 3d be 2e b0 51 3d b9 bc 5b 3e 95 c5 61 bb
       -0.18542144 0.05119341 0.2145871 -0.0034450043
0003a0 20 15 b6 3e 6d 7a 50 3e 7a 97 f3 3e 4c 83 d3 bd
       0.35562992 0.20359202 0.47576505 -0.10327777
0003b0 7e 9c 83 be 2e 5b 95 3e ee b5 ab be 0b e4 0f be
       -0.25705332 0.29171127 -0.3353724 -0.14051835
0003c0 07 53 2b 3d 6c 85 ce be db 93 d2 be fe 2f 53 3e
       0.041827228 -0.40336168 -0.4112843 0.20623776
0003d0 e0 e2 d1 be 19 0e ba be 2c 16 50 be 6b 12 8b be
       -0.40993404 -0.3633888 -0.20320958 -0.2716249
0003e0 a1 1b 96 be 26 0a 7a be b8 5a 9b be a0 96 92 be
       -0.29317954 -0.24417934 -0.3034265 -0.28630543
0003f0 73 4d ad 3f c6 14 19 3e c0 69 99 be f3 0b 09 3f
       1.3539261 0.1494933 -0.29963493 0.5353386

conv3.bias f4 [16]
000000 c0 42 d5 bc 40 65 31 3e 0c 17 09 be 81 d0 70 3d
       -0.026032805 0.1732378 -0.13387698 0.058792595
000010 d0 4a 34 be 8a 83 5b 3c 2f 63 01 be 1a db 5d be
       -0.17606664 0.013398061 -0.12635492 -0.21665612
000020 04 e5 07 3e 04 e0 16 be 39 04 0b bf df cc a9 bd
       0.13270956 -0.14733893 -0.5430332 -0.08291029
000030 54 d4 e2 bd 95 e3 88 be eb 82 7b 3e f0 29 d6 bc
       -0.110756546 -0.2673613 0.2456166 -0.026143044

fc1.weight f4 [120, 400]
000000 ed 7c d4 bd 3f a2 7b bd e4 14 aa 3d 46 62 21 bd
       -0.1037539 -0.061434027 0.08304766 -0.03940036
000010 f9 6e 88 3d 95 e2 f2 bd 10 6f b0 bd 9f 57 e3 3d
       0.06661791 -0.11859623 -0.086149335 0.11100697
000020 56 ce 6c bd 63 b7 17 3b d5 ab 5f bd c4 4e ae 3d
       -0.057813965 0.0023150078 -0.05460723 0.08511117
000030 ab b1 db 3d 8d 45 aa 3c 0f 95 a1 bd 72 8f 34 3b
       0.10727247 0.020785118 -0.07889759 0.002755132
000040 e3 52 0d 3c 1e 98 91 3c c0 7f 30 3c 8d ca 85 bd
       0.008625719 0.01777273 0.0107726455 -0.06532774
000050 37 79 d5 bd b1 ec 5c bc 8a 56 0c 3c da 00 2f bd
       -0.104235105 -0.013484166 0.008565554 -0.04272542
000060 68 ab b4 3b 49 7c d8 bc 0f 62 b3 bc a9 5f 0b 3d
       0.0055135973 -0.026426451 -0.021897344 0.034026776
000070 59 82 57 bd 6d 35 a9 bd a7 bd 6c ba b7 f0 2f 3c
       -0.052614544 -0.08262143 -0.0009030946 0.010738543
000080 33 f8 7b bd 92 e0 ba 3b 50 a5 8e bc c9 96 4c 3e
       -0.061515998 0.0057030404 -0.017412812 0.19979395
000090 51 17 cb 3d b6 3c 74 bd 5c 0b 0f 3e 66 8b 03 3d
       0.099165566 -0.05962821 0.13969177 0.032115363
0000a0 c5 ce 6c 3d ab e2 93 3c cd c1 c8 bd 6c 0b 93 3c
       0.05781438 0.01805242 -0.098025896 0.017949782
0000b0 3a c9 19 bd 1c d3 d3 bd 6b ce bf bd 8e 90 1a be
       -0.03754542 -0.10343 -0.09365543 -0.15094206
0000c0 a5 0f 42 bd bd e7 9c bd eb 66 07 bd d5 95 ff 3c
       -0.0473782 -0.07661388 -0.033057135 0.031199375
0000d0 ad e4 56 3c c4 8e 39 3d 83 6f d2 3c 0e 1b ac 3b
       0.013116044 0.045302168 0.025687939 0.0052522486
0000e0 20 c7 0b bd 0b d2 94 3d 14 13 61 bd 69 57 b1 bc
       -0.034125447 0.07266625 -0.054949835 -0.021648126
0000f0 5f 85 1a 3c e9 31 4b bc 2a 09 0d 3c a0 d2 48 3d
       0.009431212 -0.012402036 0.008608142 0.049028993
000100 38 74 77 3d cc 7e 04 3c f2 0d 82 3c 86 28 eb bc
       0.06041357 0.008086871 0.01587579 -0.028705847
000110 18 d3 13 bc ce 24 bf 3a 09 37 01 3d 29 7d 05 bd
       -0.009022497 0.0014583112 0.031546626 -0.032590065
000120 ff d2 d4 3b 9d b5 4e 3c ef 82 34 b9 54 da c0 3b
       0.0064948793 0.012616542 -0.00017214914 0.0058854017
000130 2d cc bf 3d 9e 1d 3a bd 26 26 01 bd 8e e1 83 3c
       0.09365115 -0.0454384 -0.03153052 0.016098764
000140 f5 d7 d5 bc 88 be e2 3d d8 ea 2b 3d 42 01 ec 3c
       -0.026103953 0.11071497 0.04197201 0.028809194
000150 19 1c 4c 3d 8c 78 90 3d d6 e8 88 bd 42 d9 ff 3d
       0.049831484 0.070542425 -0.06685035 0.124926105
000160 15 c5 5b 3d 0c 9c 08 3d a5 a2 ca 3d ff b3 d9 bd
       0.05365475 0.033351943 0.09894303 -0.10630035
000170 44 ac 0b 3d f5 bc 27 bc 0c ac 33 3d 7f 63 9a 3d
       0.034099832 -0.010237922 0.04386525 0.075385086
000180 f4 a4 90 bd ff 46 ac bd 02 c6 87 bd c1 79 8a 3c
       -0.07062712 -0.08411979 -0.06629564 0.01690376
000190 88 2d 5e 3d f1 a0 89 3d 00 05 27 3e af 82 68 3d
       0.05424264 0.0672015 0.16310501 0.056765255
0001a0 05 e3 31 bc b0 a4 9e 3c 83 b0 02 3e 4d 4a af 3d
       -0.010857348 0.019365638 0.12762646 0.085590936
0001b0 bd f8 06 bd fe 26 83 3c eb 07 e9 3d 64 5b b9 3c
       -0.03295206 0.016009804 0.11378463 0.022626586
0001c0 81 d8 4b 3b 47 8e e1 3b 30 82 28 bc 0a 97 98 3d
       0.0031104388 0.006883416 -0.010284945 0.074506834
0001d0 dd 41 8c bd dd d8 50 bc 66 1b f5 bd ff f4 96 bd
       -0.068485 -0.012747017 -0.119681165 -0.07370948
0001e0 35 3d 3a bc 94 07 89 bc 72 73 8a bd 8f e6 14 3b
       -0.011367132 -0.016727246 -0.06760301 0.0022720431
0001f0 76 de 74 3c 52 94 05 3d af bf 12 bd a1 1a 85 3c
       0.014945617 0.032612152 -0.035827335 0.01624805
000200 a1 c5 b5 3c 86 fe 48 bd 4f 44 eb 3c bc 3a 80 3c
       0.022188963 -0.049070857 0.028719096 0.015653007
000210 c5 32 d9 3c 19 c5 24 bd 5b 48 50 3b 01 9f 47 bd
       0.026513467 -0.04022703 0.0031781408 -0.048735622
000220 48 32 ea 3c 97 87 0c bd 76 75 20 bc 88 37 b7 3c
       0.02858843 -0.034308996 -0.00979363 0.022365347
000230 35 8c 00 bc 6d a8 0c bd 65 b4 22 3d 6a e3 c9 bc
       -0.007845928 -0.03434031 0.03972282 -0.024644572
000240 07 c6 b4 bc 2c 0f ba bc 69 77 0e bc 91 f3 50 bc
       -0.022067083 -0.022712313 -0.008695462 -0.012753383
000250 10 f0 f2 3c 96 8f 28 bd c0 d6 40 bd fe 75 c7 bc
       0.029655486 -0.04115256 -0.0470798 -0.024348255
000260 48 5e 02 bd 28 64 73 ba e5 8c 15 bd 4c 3b ed bc
       -0.031828195 -0.0009284639 -0.03651132 -0.028958939
000270 51 9b c0 bc 27 43 f2 bc 19 d4 c3 3c 05 6b b4 3b
       -0.02351156 -0.029573036 0.023904847 0.005505922
000280 c8 bb 00 bd cc e9 78 3c 6d 56 27 3d 6f 49 99 3c
       -0.031429082 0.01519246 0.040853906 0.018711774
000290 49 ed e4 bc 30 e5 50 3b 6a 0f a3 bc 69 77 27 bd
       -0.027945178 0.0031874888 -0.019904811 -0.040885363
0002a0 e7 0e 5c 3d f5 a6 f5 bc b4 40 2f bd c6 92 04 3c
       0.05372515 -0.029986838 -0.042786315 0.008091634
0002b0 50 70 75 bd b4 33 13 3d 7f 8b 0b bd 11 3e e9 bd
       -0.059921563 0.03593798 -0.03406858 -0.11388791
0002c0 b2 2c 85 3b b4 c3 a2 3d f5 4c b2 3c 08 e6 61 3d
       0.004064166 0.07947484 0.021765212 0.055151016
0002d0 37 50 6c bd d9 f0 25 bd 27 d9 0b 3e d9 ce 10 3d
       -0.057693686 -0.040512893 0.13657056 0.035353515
0002e0 14 53 63 3c 81 9c 02 3d 2f 12 30 3a 30 9b a6 3c
       0.013874788 0.031887535 0.0006716577 0.020337671
0002f0 ec 38 86 bd 8c 5b 60 3d 8f 57 d3 3c c9 13 ab 3c
       -0.06553826 0.054774806 0.025798587 0.020883458
000300 00 5b 77 bd cd 48 5e ba 55 8f 6a 3d aa 81 4f bd
       -0.06038952 -0.0008479476 0.0572656 -0.050660767
000310 d7 ba 28 bd 91 cf 40 3c 2b 91 ba bd f4 da 7b 3d
       -0.04119381 0.011768238 -0.0910972 0.061488107
000320 58 22 4c 3b 54 55 0e 3e df 9a ca 3d c7 42 c2 3b
       0.00311484 0.13899738 0.098928206 0.0059283706
000330 b7 a8 38 3c 88 42 ca 3c 2d 9d 80 3d c9 a4 62 3d
       0.0112706935 0.024689928 0.06279979 0.055332933
000340 34 40 c8 3c 27 02 c3 3c 31 7f 58 bd 93 db b2 bd
       0.024444677 0.023804737 -0.052855674 -0.08733287
000350 f9 95 99 bc cc c7 c3 bd e7 2e 15 bd d7 5a d3 3c
       -0.01874827 -0.095595926 -0.036421683 0.025800152
000360 02 03 e6 3b 83 32 08 be 34 5f 8e 3d cf f5 73 bb
       0.0070194015 -0.13300519 0.06951752 -0.003722537
000370 3e d3 e9 bc fb 1b 8e bd 46 7a 11 be a7 5f ad bd
       -0.028543111 -0.069389306 -0.142068 -0.0846551
000380 d2 46 f3 bc 69 77 45 bc fd 96 cb 3b ef 97 4e 3d
       -0.029696856 -0.012052395 0.0062130676 0.050437864
000390 f6 ff 6c 3c 9f d7 2b 3b a5 79 b0 3c 86 9d 5a 3c
       0.014465323 0.002622105 0.02154238 0.013343221
0003a0 6a 70 aa ba 9d 1f a0 bc bf f2 8e bd 05 d0 98 3d
       -0.0013003473 -0.019546324 -0.06979894 0.074615516
0003b0 1b 77 07 3e f0 f4 05 3d 52 f1 95 3c be 10 15 3c
       0.13229029 0.032704294 0.018303547 0.00909823
0003c0 c9 ed c9 3d 2e 5f 2f 3d 87 ef 87 bd 8d be 42 bd
       0.09859807 0.04281538 -0.06637483 -0.047545005
0003d0 d0 54 88 bd 3d 4e 40 bd 06 54 b7 bd 83 c4 f5 bd
       -0.06656802 -0.046949614 -0.08951573 -0.12000372
0003e0 05 0e 2a bd ab f4 0f 3d 01 bb 72 bc 4b 0b c0 bd
       -0.041517276 0.035145443 -0.014815093 -0.09377154
0003f0 6c de b6 3c ea 92 08 bd b3 2b 9d 3b a1 a5 bc bc
       0.022322856 -0.033343233 0.004796469 -0.023028197

fc1.bias f4 [120]
000000 f9 46 d4 bc 75 5a 1c bd ab 2f 46 bd 06 78 b2 bd
       -0.025912749 -0.038172204 -0.048385303 -0.08714299
000010 77 e8 8d bb 12 eb 3b 3d 21 5b 02 bc 67 00 05 3e
       -0.0043306905 0.045878477 -0.007956297 0.12988435
000020 cb 66 0e 3d c2 8f de bc d0 e2 57 bc 15 1f f6 bc
       0.034766 -0.027168158 -0.013176635 -0.030044118
000030 2b 05 7b bb 2d b2 dd 3b f2 cb 33 3d 90 83 28 3c
       -0.003830264 0.006765625 0.04389567 0.010285273
000040 22 13 82 bc ba 35 64 3d 3f c0 69 bb f4 32 f9 3c
       -0.015878264 0.0557153 -0.0035667566 0.030419804
000050 92 d6 b3 bb a2 16 a4 3d 4c 50 c4 bb a7 9a 14 bd
       -0.0054882253 0.08012129 -0.0059910174 -0.0362803
000060 5f aa c8 bc 35 e5 a7 bd a4 90 c3 bb cb 03 6a bc
       -0.024495302 -0.08198015 -0.0059681702 -0.014283131
000070 c7 46 9e bc f2 3c 3d bd b9 31 9e 3d d8 5e 15 bb
       -0.019320859 -0.0462007 0.077243276 -0.0022792127
000080 e0 08 31 bd 17 cd e6 bb 5a aa 39 bd 19 4d aa 3d
       -0.043221354 -0.0070434916 -0.045328476 0.083154865
000090 a1 dc 81 bc 68 e8 0e 3d 06 89 7f bd 4d 44 a0 bc
       -0.015852274 0.03488961 -0.062386535 -0.019563818
0000a0 e1 7d 88 3c 3d be 56 3d 70 fb 77 bb 89 4c 40 bd
       0.016661586 0.05242752 -0.0037839077 -0.04694799
0000b0 31 3f d2 bc 5f 9f cb bd e8 19 18 bc 76 73 25 bd
       -0.025664898 -0.09942507 -0.00928352 -0.040393315
0000c0 7a b9 53 3a 6d 04 9f 3c ad 57 14 bd ed b0 37 3c
       0.00080766494 0.01941129 -0.036216427 0.011211616
0000d0 32 60 fe bc 7f 9e 26 3d b5 2c 3c 3b 95 da 7b 3d
       -0.031051729 0.040678497 0.002871317 0.061487753
0000e0 f7 70 02 3d 80 67 4d 3c f9 73 92 3c 9e 9c e8 bc
       0.031846013 0.012536883 0.017877566 -0.028394993
0000f0 db dd 9a bd a9 ab 5c 3d 6c d9 89 3c 8e ce 8f bd
       -0.07561847 0.053874645 0.016827308 -0.07021819
000100 1e 1f 26 3e 7c d4 2b bd ea c7 11 3d 2a 99 35 bd
       0.16222808 -0.041950688 0.035591044 -0.04433552
000110 e8 af 66 bc 38 99 c5 3b 29 a4 00 3e 4d 02 3a bd
       -0.014080025 0.006030228 0.12562622 -0.04541235
000120 eb 13 bb 3d 95 71 ed bb 1f c6 82 3d 22 34 98 bd
       0.091346584 -0.007246206 0.06385445 -0.074318185
000130 89 3b 20 3e d8 44 30 bd 86 f6 d6 3d 40 dc 38 3d
       0.15647711 -0.043034405 0.10496239 0.04513192
000140 4c c7 8b bd 35 e2 4e 3d 95 b8 53 3d 54 e1 51 bd
       -0.06825122 0.050508697 0.051689703 -0.05124028
000150 3c 1d d7 3c 30 07 7e 3c 7d 77 f5 3b e8 0b 32 3d
       0.026259057 0.015504643 0.0074910508 0.043468386
000160 c5 3a c4 3d 8f a3 31 3d 8d 3a 8c bd e9 98 08 3e
       0.09581522 0.043368872 -0.06847105 0.1333958
000170 ff 8c 01 3c 68 28 6a 3d c2 5e 61 bd 2a 41 7f 3b
       0.007907151 0.05716744 -0.05502201 0.0038948753
000180 c5 7b e8 3c 5f a1 45 3d d7 43 a1 3d f9 1f cb 3d
       0.02837933 0.0482496 0.078742675 0.09918208
000190 f6 b4 7f bb 89 e8 99 3c 59 dc 2e bd 25 7a c6 bc
       -0.0039017773 0.01878764 -0.04269061 -0.024228165
0001a0 a6 9d b4 bd f9 e0 00 bd 5a 22 8c bc 7a 3b 0a 3e
       -0.088191316 -0.03146455 -0.017106224 0.13499251
0001b0 fc 39 0a 3e 6f ad df 3c 2a 42 13 bd 51 d0 52 bd
       0.13498682 0.02730438 -0.03595177 -0.051468197
0001c0 d6 f4 ef bb 09 49 bf bc e0 17 69 3d c9 b0 55 3d
       -0.007322888 -0.023350256 0.056907535 0.05217055
0001d0 f5 82 55 bd 90 ed 4c bd 0e 53 02 3c 22 47 4f 3d
       -0.052126843 -0.050031245 0.007954372 0.050604947

fc2.weight f4 [48, 120]
000000 fc b5 8c 3d a9 91 72 bb 9a c5 48 3e 97 2d 1c bd
       0.06870648 -0.003701309 0.19606629 -0.038129415
000010 30 09 8a 3c 9b d7 14 3d 9e 9e 56 3d 4c 84 cc bc
       0.016850084 0.03633843 0.052397363 -0.024965428
000020 ec 67 d2 3c d3 b0 58 bd 4b e4 c1 3b 23 79 55 3d
       0.02568432 -0.052903008 0.005917107 0.052117478
000030 58 9d a4 bd 20 61 57 bd 9c b8 84 3d 7c d1 9a 3c
       -0.080378234 -0.05258286 0.06480524 0.018898718
000040 1f 55 03 be 9a 70 e8 3d 73 f5 81 bd 8b bc 8b bd
       -0.1282544 0.11349602 -0.06345644 -0.06823071
000050 39 ea 60 3d 45 44 34 bd dc 5a a7 3d 16 7e 4f be
       0.054910872 -0.04401042 0.08171627 -0.20262942
000060 8b f6 91 bd 44 cc c3 3d 02 18 d5 bc ef 0d 1b bc
       -0.071271025 0.09560445 -0.026012424 -0.009463771
000070 9e b3 16 3d d0 8b bc bb 24 4f 13 3e d5 78 86 3d
       0.03679239 -0.0057539716 0.14385659 0.06566016
000080 7b c7 cb 3d e3 60 7e 3b 54 3c 61 3d 71 fb 04 be
       0.09950157 0.0038815073 0.054989174 -0.12986542
000090 d3 51 62 3d e6 e2 24 3b 27 8a b5 bd 91 91 63 3c
       0.055253815 0.0025159656 -0.08864241 0.013889686
0000a0 2d 6f 5e 3d 65 34 87 3d 37 38 b2 bc ea 08 ba 3d
       0.054305244 0.0660179 -0.021755321 0.090837315
0000b0 d6 41 83 bd f5 15 03 be 2b 90 8d 3d cd 0f ed bd
       -0.064090416 -0.12801345 0.069122635 -0.115752794
0000c0 38 ca c9 bc 2f 39 b2 bd c6 19 aa 3d 02 46 8c 3c
       -0.024632558 -0.08702313 0.08305697 0.017123226
0000d0 79 3f a1 bd 60 3a 36 be c8 00 51 be a4 ef aa 3d
       -0.078734346 -0.17795706 -0.20410454 0.08346489
0000e0 0b aa 26 bc 78 8e 1a be 2b c7 27 bd 82 5c cd bd
       -0.010172377 -0.1509341 -0.040961426 -0.1002741
0000f0 ef 59 e6 3d 30 92 cc bd 5e 73 8e 3d 46 0c b8 3d
       0.11247622 -0.099888206 0.06955598 0.08986716
000100 95 c1 a5 bd 74 d3 a3 bd 5d 7d 0b be bd 44 43 be
       -0.080935635 -0.07999316 -0.13622041 -0.1906919
000110 22 e9 db 3d ad 99 d0 bd 3c cb a6 bd c5 72 0d bd
       0.10737826 -0.10185561 -0.08144233 -0.03453328
000120 58 f9 8e 3c 6e db 97 bd 4e d6 47 3e cb 5d af 3c
       0.01745288 -0.074149 0.19515345 0.021407029
000130 07 3b 36 be 47 a4 a0 3d 6b 1d 34 3c d0 4f 99 3d
       -0.17795955 0.078438334 0.010993342 0.07485926
000140 5f 73 20 3d eb 06 8b 3d 28 8c 15 3e cf c6 8e bc
       0.039172526 0.06788429 0.14604247 -0.017428784
000150 36 fa 32 bd 9b 2a 80 3d 46 8c 0e 3e b9 47 93 bd
       -0.04369565 0.06258126 0.13920698 -0.071914144
000160 d3 3d 9c bd 64 92 81 be dd 18 03 bc d8 86 53 be
       -0.076289795 -0.25307 -0.008001533 -0.20656908
000170 1a 37 dc 3c 34 fe ca 3d cc bd 93 3c ff c9 5c bd
       0.026881743 0.09911767 0.018034838 -0.053903576
000180 5b 0c 64 3d aa 64 c2 bc e1 45 a9 3d fe 12 0e be
       0.055675846 -0.023729641 0.082652815 -0.13874432
000190 c4 5e 4a bd d0 e9 e2 3d d4 7c 8d 3d 58 77 0d 3e
       -0.04940678 0.110797524 0.06908575 0.13815057
0001a0 94 fb 6c bb 7d 5a f1 39 47 18 87 bc 12 bf 1c be
       -0.0036160694 0.0004603452 -0.016491069 -0.15307263
0001b0 4a 04 da 3c 38 d5 9d bd 69 94 7f bb 5f 5b 7a 3d
       0.026613373 -0.07706684 -0.0038998371 0.061122295
0001c0 2f 69 b9 bd 50 63 02 3d 68 e0 e1 3d 9e f5 01 bd
       -0.09053265 0.031832993 0.1102913 -0.03172838
0001d0 64 68 aa bd e8 e9 f1 bd 75 a8 d3 3b 70 01 c5 bd
       -0.08320692 -0.11812192 0.0064592906 -0.09619415
0001e0 06 8b 88 be 86 17 c3 bd ce b8 33 bd 98 06 1c bd
       -0.26668566 -0.09525971 -0.043877415 -0.038092226
0001f0 35 61 ba 3d e5 59 35 be a3 fd 42 be c6 52 c9 3d
       0.09100572 -0.17710073 -0.19042067 0.09830241
000200 16 76 60 3e 86 61 cd bd 8a c5 24 be 90 c7 4a bd
       0.21920046 -0.10028367 -0.1609098 -0.049506724
000210 0d 40 0e bd 9a 2c f1 bc ee b8 44 3d af e2 39 be
       -0.034729052 -0.029440213 0.048027925 -0.18152879
000220 ca bf e3 bd d1 3c 57 3d 96 04 a3 3e c0 a5 5c bd
       -0.11120565 0.052548233 0.31839436 -0.05386901
000230 35 b0 8e be 15 ab e2 3d 41 39 58 bd 88 3e 99 bc
       -0.2786881 0.110677876 -0.052788977 -0.018706575
000240 54 58 9a bd e4 0b 49 be c4 fe b4 3e 3b 34 00 be
       -0.075363785 -0.19633442 0.3535062 -0.12519924
000250 f7 f2 b7 bd b4 9d 26 3d 3d e3 54 3e c4 10 4b 3d
       -0.08981889 0.04067774 0.2078981 0.049576536
000260 7f d7 34 be d6 43 99 3d ab 80 52 3e 3e 33 a0 3d
       -0.1766033 0.07483642 0.20556895 0.07822274
000270 b1 fc 2d 3d 00 7d 06 bf 3d 78 3f be f0 3c 76 be
       0.042477313 -0.52534485 -0.18698211 -0.24046683
000280 58 a5 69 3e d9 15 2b 3d 97 17 ca 3d 5a 2a f4 bd
       0.2281698 0.041768882 0.09867781 -0.119221404
000290 43 de ab 3e cd 7f ee 3d 85 cb f9 bd 1a 38 42 bc
       0.3356801 0.1164547 -0.121970214 -0.011854196
0002a0 93 f6 a9 3c a1 f2 54 be 86 5f a8 bd be e8 fd 3d
       0.020747459 -0.2079568 -0.08221345 0.12397908
0002b0 fd d7 11 3e 79 a0 4d 3e 63 ef b6 bd f3 9d 20 3d
       0.14242549 0.20080747 -0.08932378 0.039213132
0002c0 76 47 5d 3d ad 31 d7 39 fc 6f 8f 3e e5 fe 95 3e
       0.05402323 0.00041045007 0.28015125 0.29296032
0002d0 95 a3 a9 3c 1f 08 ee 3d 03 ad 42 bc f0 79 75 be
       0.020707885 0.11622643 -0.0118820695 -0.23972297
0002e0 a0 76 15 3e 49 bc b7 3d f0 8b 83 be 9a a4 80 bd
       0.14596033 0.089714594 -0.256927 -0.06281395
0002f0 77 52 d4 3c 9b 54 cc bc 8a fb 82 be 56 bd 6a 3e
       0.025918229 -0.024942687 -0.25582534 0.22923788
000300 9e fb 89 bd db 51 91 be 75 19 65 3e 08 2c 08 be
       -0.06737445 -0.28382763 0.22372992 -0.13298047
000310 a1 39 d8 3d 32 6c 48 3d 26 b8 8a 3e da 0a d6 be
       0.10557867 0.048931308 0.2709362 -0.41805154
000320 19 0b 87 bd 54 38 df bd 50 db 99 3c 66 73 8b be
       -0.065939136 -0.108994156 0.018781334 -0.2723648
000330 04 b6 c5 bd 97 33 69 3e 84 16 0e 3e 1a af 25 3c
       -0.09653857 0.22773586 0.13875777 0.010112548
000340 a1 42 ce 3c 88 0b c1 3e 29 dc 99 be f3 2a 0f 3f
       0.025178256 0.3770411 -0.3005078 0.5592491
000350 85 47 e1 3d a1 7c da bd 20 a1 bb 3d 17 31 6e 3d
       0.109999694 -0.10668302 0.091615915 0.058152284
000360 84 b3 48 be dc a6 a3 3e f4 05 a7 be f8 a8 57 3e
       -0.1959973 0.3196324 -0.3262173 0.2106055
000370 bd 79 38 be 38 22 7b be 72 2b 97 bb 31 63 0b bf
       -0.1801519 -0.24524772 -0.0046133334 -0.5444823
000380 a4 49 2b 3e 1e b1 47 bd cc f2 56 bc 7d ba 92 3e
       0.1672731 -0.048752896 -0.013119411 0.28657904
000390 49 e3 a9 bb ac 5a 8a 3d 42 e8 3f be ae ca 2f be
       -0.005184565 0.067555755 -0.18740943 -0.1716716
0003a0 31 2b e9 3d 05 78 a4 be 15 03 b0 be ef 14 8d 3b
       0.11385191 -0.32122818 -0.3437735 0.004305474
0003b0 3f a2 40 bc e6 a1 d6 3d 95 ce 98 3d bb 8c db 3e
       -0.0117574325 0.104800984 0.074612774 0.42880806
0003c0 67 d8 da 3d a6 71 f0 3d f1 e4 b0 3d f9 db 05 bd
       0.10685807 0.11740427 0.08637417 -0.032680485
0003d0 8e 0f 63 3d 55 b1 a8 bc f7 84 c6 3d fd d1 f8 be
       0.055434756 -0.020592371 0.0969333 -0.48597708
0003e0 7e 94 78 be d8 aa b0 bd 63 db 48 bd 21 97 05 3d
       -0.24275395 -0.08626336 -0.04903735 0.03261483
0003f0 bb e3 64 3d 09 cd 35 bc 7c fb 47 3c 0a c5 58 3e
       0.055881243 -0.0110962475 0.012205955 0.21168914

fc2.bias f4 [48]
000000 80 1f ac bd 13 dd 91 3e 0b f5 86 bc 3a dc 12 bd
       -0.08404446 0.2848898 -0.016474267 -0.035854556
000010 b1 9c a5 3d 03 06 9c 3e 52 15 31 3e 2a bc 13 be
       0.08086527 0.30473337 0.1729329 -0.14427248
000020 e9 31 bd bc f7 d9 ab 3c ca 5d 8b bc 34 49 59 3e
       -0.023095088 0.020977957 -0.017012496 0.21219331
000030 9c 41 54 3d 5c a4 8d bd 1e 54 08 3e d0 4c a4 3d
       0.051820382 -0.06916115 0.13313338 0.08022463
000040 ee 13 90 bd a9 84 35 3c 35 2e 15 3d e6 03 06 be
       -0.07035051 0.011078992 0.03642102 -0.13087425
000050 0b e0 57 3d 59 00 5b 3e 98 e6 18 3b a7 5a 44 bc
       0.0527039 0.21386851 0.0023330804 -0.011984504
000060 cc 00 0d be 56 73 64 3e 62 30 73 3d e8 6a 86 3d
       -0.13769835 0.22309622 0.059372313 0.065633595
000070 df d3 6e bd 01 30 d8 3c 03 e4 cd 3b db 92 88 bd
       -0.058307525 0.026390078 0.0062832846 -0.066686355
000080 32 23 03 3e d9 50 9d 3e 9c c6 69 3d 61 c6 90 bd
       0.12806395 0.30725744 0.057074174 -0.07069088
000090 c6 41 76 3e 0e ba d1 3d 8d a3 c9 3d 7e 9b e3 bd
       0.24048528 0.10240565 0.09845648 -0.11113642
0000a0 95 14 e3 3d dd d4 69 3c 16 99 2e 3e 31 b0 9c bd
       0.1108791 0.014271942 0.17050585 -0.07650793
0000b0 e1 2a e9 bd 08 62 08 bd 0f 1d f1 3d 4c 18 59 3d
       -0.113851316 -0.033296615 0.117731206 0.053001687

fc3.weight f4 [25, 48]
000000 69 8d 14 be 88 c3 44 be b5 30 2a 3f 55 5b 54 3e
       -0.14507069 -0.19215214 0.6648057 0.20737965
000010 14 9d e7 3d 67 e0 a0 3e 5b 71 03 bf 7f 3e b9 bd
       0.11309257 0.31421205 -0.5134484 -0.09045123
000020 94 75 87 be ab 52 aa bd 6b 92 f0 be 26 52 76 be
       -0.26456892 -0.08316549 -0.46986708 -0.24054775
000030 7e c2 98 3e 0e 68 e2 bd 4d 82 94 bb 5c 47 6b be
       0.29835886 -0.11055003 -0.0045321346 -0.2297644
000040 58 01 46 3e ac 70 1e 3c 52 4d ba be f6 d9 6d be
       0.1933645 0.009670418 -0.36387116 -0.23227677
000050 d0 23 5b be 44 b0 96 3e 93 61 91 3d 75 4c 4d be
       -0.2140038 0.29431355 0.07098689 -0.20048697
000060 a2 57 d7 bd c1 c1 86 3e a2 66 7a be fc d4 8a 3d
       -0.105147615 0.26319697 -0.24453214 0.06778905
000070 20 ea 6b be 01 c7 6f be 5e a9 c4 3d 69 7e 87 3d
       -0.2303853 -0.23415758 0.09602617 0.06615908
000080 45 83 a4 be 87 42 66 3e 0a 8e 72 3e ba 2f 76 3d
       -0.321314 0.22486316 0.23686996 0.06010411
000090 0d fe 20 3e 10 79 5b be 85 d2 08 3f 93 df 4d bd
       0.15721913 -0.214329 0.5344623 -0.050262045
0000a0 73 41 d5 be 6e d7 d4 3d 02 bb 95 be f4 02 b3 bd
       -0.41651496 0.103926525 -0.29244238 -0.08740798
0000b0 69 b9 ba 3e 70 4e 10 be db 87 b1 3d d0 0c 25 be
       0.36469582 -0.14092422 0.086684905 -0.16118169
0000c0 ae 3d 10 be 62 1d 29 3f 32 8c 18 be 8e 41 ef bd
       -0.14086029 0.6606046 -0.1489723 -0.116824254
0000d0 68 a8 a3 be 7b c8 05 be 89 16 d2 3e 8d e5 59 bd
       -0.3196442 -0.13064758 0.41032818 -0.053197432
0000e0 91 cf 16 3f 77 3a 61 3e 3d d4 0b be 2a 65 dd be
       0.5891047 0.21994959 -0.13655181 -0.43241245
0000f0 b4 bd 2b bc c1 bd a0 3d 34 e1 70 bd 59 55 b2 3d
       -0.0104822405 0.07848693 -0.05880852 0.08707685
000100 64 4e e2 3c 00 56 24 3e ac 5c e5 3e 7e 7d a0 be
       0.02762527 0.16048431 0.44797266 -0.31345743
000110 44 a3 53 be 0f 7d 9b be d4 8a bf bc 70 71 28 be
       -0.2066775 -0.3036885 -0.023381628 -0.16449523
000120 2a 94 0c be 53 9a 7e bc 88 9f 99 be ed cf 1d be
       -0.13728395 -0.015539723 -0.30004525 -0.15411349
000130 6d 3a 80 be 94 db 1f 3e ba 2c 48 be 95 0a 54 3d
       -0.25044575 0.15611106 -0.19548312 0.051767904
000140 cc 21 c3 bd 83 e5 ad 3e d1 29 de bd 7e 52 9c bd
       -0.095279306 0.33964166 -0.108478196 -0.07632922
000150 9f 21 b4 3d 7f 8b e9 bd 3d 62 3f 3e a4 95 1b be
       0.08795475 -0.1140356 0.18689819 -0.15193802
000160 90 8f 3a be b2 f9 73 be dc 41 64 be da 2e c4 bc
       -0.18218827 -0.2382572 -0.22290748 -0.023948122
000170 31 13 0a be 34 e6 06 be d3 7f b5 3e 3c ca ac bd
       -0.13483883 -0.13173753 0.35449085 -0.08437011
000180 f5 e0 04 bc ba dd 71 3e f8 82 4a be 3c af 2f be
       -0.008110275 0.23619738 -0.19776523 -0.1715669
000190 47 ee fd 3e 67 a6 d3 bd 4b 64 d6 3e ad bb a1 3e
       0.49595854 -0.10334473 0.41873392 0.31588498
0001a0 c2 11 50 bd 2d 96 50 bd 58 0b a5 3e 55 25 67 bd
       -0.050798185 -0.05092447 0.32235217 -0.056432087
0001b0 80 17 0a be 28 bd 68 3e f1 a5 d9 3a 32 69 99 bc
       -0.13485527 0.22728407 0.001660524 -0.018726919
0001c0 4f bb f3 3e 3c 84 89 3e 79 a9 7c be cf 8d c8 bd
       0.47603843 0.268587 -0.24674024 -0.09792673
0001d0 ad 4d 93 be 9b 2f 96 be da e1 66 be 48 25 e9 bc
       -0.287702 -0.29333195 -0.22547093 -0.02846016
0001e0 dd 24 04 3e 67 8c b0 3e 48 16 fb be 50 57 56 3e
       0.12904687 0.34482118 -0.49040437 0.20931745
0001f0 a2 48 20 bd 7f 2d f8 bd 28 5a 98 bb 5d 99 93 3c
       -0.039131768 -0.12118053 -0.0046494193 0.018017465
000200 09 c3 5a be 79 db b3 be 3d 5d 82 bd 43 7b 36 3e
       -0.21363463 -0.35128382 -0.0636544 0.17820458
000210 5c 25 b8 be 84 7a 5d 3e 24 23 6b be fd 15 37 bc
       -0.35966003 0.21628767 -0.22962624 -0.011174676
000220 11 3e 67 be c3 a5 b2 3d de 26 b4 be 55 03 26 be
       -0.2258227 0.08723023 -0.35185903 -0.16212209
000230 9c 65 c4 3e 6e c6 33 3d c3 0a 7c be eb d1 54 3b
       0.38358772 0.04389041 -0.2461348 0.0032473754
000240 49 48 22 3e 33 de 3a be da c9 93 be 04 1b c6 3e
       0.15847887 -0.18248825 -0.28864938 0.38692486
000250 78 f0 a3 bd 84 f3 cf bd 0d fb be 3e dc 7f 97 be
       -0.0800485 -0.10153869 0.37300912 -0.29589736
000260 4e 96 8a be e0 0c fc bd ca 58 fb 3e ae fa c7 3e
       -0.27067798 -0.12307143 0.49091178 0.3905844
000270 e4 ea ac be fd 56 a6 3d d3 17 ce be e5 05 22 be
       -0.33772957 0.081220604 -0.4025255 -0.15822561
000280 1d 07 a2 3e 07 c1 24 be 88 a8 4f bc 92 90 c1 3e
       0.31646052 -0.16089259 -0.012674458 0.3780561
000290 03 3f 89 be 75 9a 0a 3e 28 cf e5 3c f9 f0 89 3e
       -0.26805887 0.13535483 0.028052881 0.2694166
0002a0 72 af 92 3d 0d b3 30 3e f2 45 a3 3e ff b4 39 be
       0.0716237 0.17255802 0.31889302 -0.18135451
0002b0 1d 82 b7 bd 1b 1a 7a bd be 8f 30 be e9 1b 15 3e
       -0.08960364 -0.061060052 -0.17242333 0.14561428
0002c0 fc 65 00 3f 1e 87 48 3d ac bb ea 3d 45 9b 91 bd
       0.50155616 0.048956983 0.11461577 -0.071096934
0002d0 34 f7 83 be 2e cd bf bd cb e2 36 3f 40 b2 0f 3d
       -0.2577454 -0.09365307 0.7143981 0.0350821
0002e0 7a 5b 8f be 2d 4d d3 3e b7 ae de 3d 3c 0f d5 be
       -0.2799948 0.41269818 0.10873168 -0.41613185
0002f0 29 1d 28 be 23 53 a9 3d 77 37 ba bd ef 77 cd be
       -0.16417374 0.0826781 -0.0909261 -0.40130565
000300 b2 3f 52 3d 1d 33 8b 3e fc 25 8f be 20 9f 09 3e
       0.051330276 0.27187434 -0.27958667 0.13439608
000310 12 18 2a 3e cc 36 64 be 9c de a6 3d d0 ef e0 bd
       0.16610745 -0.22286528 0.08147928 -0.109832406
000320 ae 81 fb 3b 4d 54 60 be c0 8d 32 be 8d 1a 20 be
       0.007675371 -0.21907158 -0.17436886 -0.15635128
000330 12 c4 a6 3e a9 47 df bd 6c fb 73 3e c4 80 29 3e
       0.32571465 -0.1090234 0.23826379 0.16553026
000340 7f f7 d7 3e 69 0a 8c 3e 19 f6 6f be 2d 8f 2a be
       0.42181012 0.27351692 -0.23433723 -0.1665618
000350 59 00 f9 3d d8 8e 97 be ed 8d be bd 1a 74 1f be
       0.121582694 -0.2960117 -0.09304414 -0.15571633
000360 da d6 01 bc 47 6c f4 bd 48 57 a3 be ca 90 cb 3e
       -0.00792476 -0.11934715 -0.31902528 0.39758903
000370 89 c2 5b be e0 db 21 be 65 87 e3 3e 92 cf fe bc
       -0.21460928 -0.15806532 0.44439235 -0.031104837
000380 22 1d cc 3d a7 2b 3e 3e ad 1e c8 3e 84 e5 60 3e
       0.09966494 0.1857134 0.39085904 0.21962553
000390 34 95 3f bd e1 8e 8d 3d 21 67 03 3f 10 3e 5f 3e
       -0.04677315 0.069120176 0.5132924 0.21801019
0003a0 ad fa 7b be 1a b9 95 3d 1f 41 58 be 37 01 d8 bd
       -0.24607344 0.07310696 -0.21118592 -0.10547107
0003b0 3e bb 89 bd ad 02 c5 bd bb 8f 90 bd 96 43 12 be
       -0.06725167 -0.09619651 -0.070586644 -0.14283594
0003c0 c4 66 dd 3d 52 2e 23 3f a1 11 58 3e ca ad ed 3e
       0.108106166 0.63742554 0.21100475 0.46421653
0003d0 74 3e ab 3e e5 85 02 3e 4c c0 c9 be de 10 2e be
       0.33446085 0.12746389 -0.39404523 -0.16998622
0003e0 fc 35 4e be 9b 30 0d bc 72 35 d7 be 69 56 03 3e
       -0.20137781 -0.0086175455 -0.42032963 0.12825932
0003f0 11 ff c4 be 85 69 bb 3e 6b 40 fa bc 10 b2 99 3d
       -0.3847585 0.36603943 -0.030548295 0.07504666

fc3.bias f4 [25]
000000 28 1c 73 be 70 50 cb 3d 00 31 fd bd a1 22 1e 3d
       -0.2374121 0.099274516 -0.12362862 0.038607243
000010 32 1b 78 bd 5e 26 35 bd ad 33 7c bd 0a 90 d9 3d
       -0.06057281 -0.044226043 -0.06157272 0.106231764
000020 71 75 0b 3e 35 48 b5 bd 04 43 ca 3d f3 d9 95 bd
       0.13619019 -0.08851663 0.098760635 -0.07316961
000030 21 61 3a 3e c2 37 23 be 9b 38 c4 3e 6a 0e b9 be
       0.18201114 -0.15939239 0.38324437 -0.3614381
000040 39 9f 6e 3d 14 e1 21 be 93 5e 6f 3e 61 97 7f 3e
       0.058257315 -0.15808517 0.23375921 0.2496009
000050 a1 a3 98 3b e4 f3 c1 3e 57 e1 94 bd 8b 03 0f bd
       0.004658178 0.37881386 -0.07269543 -0.03491549
000060 30 52 04 bf
       -0.5168791
